…
 'separate_val_path': None,
 'show_individual_scores': False,
 'split_sizes': [0.8, 0.1, 0.1],
 'split_type': 'random',
 'test': False,
 'test_fold_index': None,
 'undirected': False,
 'use_compound_names': False,
 'use_input_features': None,
 'val_fold_index': None,
 'warmup_epochs': 2.0}
Loading data
Number of tasks = 1
Splitting data with seed 0
Total size = 823 | train size = 658 | val size = 82 | test size = 83
Fitting scaler
Building model 0
MoleculeModel(
  (encoder): MPN(
    (encoder): MPNEncoder(
      (dropout_layer): Dropout(p=0.1, inplace=False)
      (act_func): ReLU()
      (W_i): Linear(in_features=147, out_features=1000, bias=False)
      (W_h): Linear(in_features=1000, out_features=1000, bias=False)
      (W_o): Linear(in_features=1133, out_features=1000, bias=True)
    )
  )
  (ffn): Sequential(
    (0): Dropout(p=0.1, inplace=False)
    (1): Linear(in_features=1000, out_features=1000, bias=True)
    (2): ReLU()
    (3): Dropout(p=0.1, inplace=False)
    (4): Linear(in_features=1000, out_features=1, bias=True)
  )
)
Number of parameters = 3,283,001
Epoch 0
Loss = 1.4580e-02, PNorm = 57.6577, GNorm = 2.7228, lr_0 = 4.4615e-04
Fold 0
{'activation': 'ReLU',
 'atom_messages': False,
 'batch_size': 50,
 'bias': False,
 'checkpoint_dir': None,
 'checkpoint_path': None,
 'checkpoint_paths': None,
 'config_path': None,
 'crossval_index_dir': None,
 'crossval_index_file': None,
…
 'separate_val_path': None,
 'show_individual_scores': False,
 'split_sizes': [0.8, 0.1, 0.1],
 'split_type': 'random',
 'test': False,
 'test_fold_index': None,
 'undirected': False,
 'use_compound_names': False,
 'use_input_features': None,
 'val_fold_index': None,
 'warmup_epochs': 2.0}
Loading data
Number of tasks = 1
Splitting data with seed 0
Total size = 823 | train size = 658 | val size = 82 | test size = 83
Fitting scaler
Building model 0
MoleculeModel(
  (encoder): MPN(
    (encoder): MPNEncoder(
      (dropout_layer): Dropout(p=0.1, inplace=False)
      (act_func): ReLU()
      (W_i): Linear(in_features=70, out_features=1000, bias=False)
      (W_h): Linear(in_features=1000, out_features=1000, bias=False)
      (W_o): Linear(in_features=1056, out_features=1000, bias=True)
    )
  )
  (ffn): Sequential(
    (0): Dropout(p=0.1, inplace=False)
    (1): Linear(in_features=1000, out_features=1000, bias=True)
    (2): ReLU()
    (3): Dropout(p=0.1, inplace=False)
    (4): Linear(in_features=1000, out_features=1, bias=True)
  )
)
Number of parameters = 3,129,001
Epoch 0
Loss = 1.5106e-02, PNorm = 56.1965, GNorm = 3.7662, lr_0 = 4.4615e-04
Validation rmse = 68.447228
Epoch 1
Loss = 1.4596e-02, PNorm = 56.2599, GNorm = 7.8998, lr_0 = 7.9231e-04
Validation rmse = 23.863932
Epoch 2
Loss = 3.8998e-03, PNorm = 56.3791, GNorm = 2.2547, lr_0 = 9.9280e-04
Validation rmse = 16.963525
…
 'separate_val_path': None,
 'show_individual_scores': False,
 'split_sizes': [0.8, 0.1, 0.1],
 'split_type': 'random',
 'test': False,
 'test_fold_index': None,
 'undirected': False,
 'use_compound_names': False,
 'use_input_features': None,
 'val_fold_index': None,
 'warmup_epochs': 2.0}
Loading data
Number of tasks = 1
Splitting data with seed 0
Total size = 823 | train size = 658 | val size = 82 | test size = 83
Fitting scaler
Building model 0
MoleculeModel(
  (encoder): MPN(
    (encoder): MPNEncoder(
      (dropout_layer): Dropout(p=0.1, inplace=False)
      (act_func): ReLU()
      (W_i): Linear(in_features=80, out_features=1000, bias=False)
      (W_h): Linear(in_features=1000, out_features=1000, bias=False)
      (W_o): Linear(in_features=1066, out_features=1000, bias=True)
    )
  )
  (ffn): Sequential(
    (0): Dropout(p=0.1, inplace=False)
    (1): Linear(in_features=1000, out_features=1000, bias=True)
    (2): ReLU()
    (3): Dropout(p=0.1, inplace=False)
    (4): Linear(in_features=1000, out_features=1, bias=True)
  )
)
Number of parameters = 3,149,001
Epoch 0
Loss = 1.5088e-02, PNorm = 56.4540, GNorm = 2.7623, lr_0 = 4.4615e-04
Validation rmse = 23.916865
Epoch 1
Loss = 9.0359e-03, PNorm = 56.5225, GNorm = 1.2968, lr_0 = 7.9231e-04
Validation rmse = 17.964513
Epoch 2
Loss = 2.7351e-03, PNorm = 56.6319, GNorm = 1.1326, lr_0 = 9.9280e-04
Validation rmse = 15.093586
…
 'separate_val_path': None,
 'show_individual_scores': False,
 'split_sizes': [0.8, 0.1, 0.1],
 'split_type': 'random',
 'test': False,
 'test_fold_index': None,
 'undirected': False,
 'use_compound_names': False,
 'use_input_features': None,
 'val_fold_index': None,
 'warmup_epochs': 2.0}
Loading data
Number of tasks = 1
Splitting data with seed 0
Total size = 823 | train size = 658 | val size = 82 | test size = 83
Fitting scaler
Building model 0
MoleculeModel(
  (encoder): MPN(
    (encoder): MPNEncoder(
      (dropout_layer): Dropout(p=0.1, inplace=False)
      (act_func): ReLU()
      (W_i): Linear(in_features=81, out_features=1000, bias=False)
      (W_h): Linear(in_features=1000, out_features=1000, bias=False)
      (W_o): Linear(in_features=1067, out_features=1000, bias=True)
    )
  )
  (ffn): Sequential(
    (0): Dropout(p=0.1, inplace=False)
    (1): Linear(in_features=1000, out_features=1000, bias=True)
    (2): ReLU()
    (3): Dropout(p=0.1, inplace=False)
    (4): Linear(in_features=1000, out_features=1, bias=True)
  )
)
Number of parameters = 3,151,001
Epoch 0
Loss = 1.5626e-02, PNorm = 56.5041, GNorm = 7.1053, lr_0 = 4.4615e-04
Validation rmse = 23.910804
Epoch 1
Loss = 6.9993e-03, PNorm = 56.5742, GNorm = 5.4779, lr_0 = 7.9231e-04
Validation rmse = 22.664071
Epoch 2
Loss = 3.3535e-03, PNorm = 56.6742, GNorm = 5.3804, lr_0 = 9.9280e-04
Validation rmse = 14.847827
…
 'separate_val_path': None,
 'show_individual_scores': False,
 'split_sizes': [0.8, 0.1, 0.1],
 'split_type': 'random',
 'test': False,
 'test_fold_index': None,
 'undirected': False,
 'use_compound_names': False,
 'use_input_features': None,
 'val_fold_index': None,
 'warmup_epochs': 2.0}
Loading data
Number of tasks = 0
Splitting data with seed 0
Total size = 683 | train size = 546 | val size = 68 | test size = 69
Fitting scaler
Building model 0
MoleculeModel(
  (encoder): MPN(
    (encoder): MPNEncoder(
      (dropout_layer): Dropout(p=0.1, inplace=False)
      (act_func): ReLU()
      (W_i): Linear(in_features=81, out_features=1000, bias=False)
      (W_h): Linear(in_features=1000, out_features=1000, bias=False)
      (W_o): Linear(in_features=1067, out_features=1000, bias=True)
    )
  )
  (ffn): Sequential(
    (0): Dropout(p=0.1, inplace=False)
    (1): Linear(in_features=1000, out_features=1000, bias=True)
    (2): ReLU()
    (3): Dropout(p=0.1, inplace=False)
    (4): Linear(in_features=1000, out_features=0, bias=True)
  )
)
Number of parameters = 3,150,000
Epoch 0
Loss = nan, PNorm = 56.4211, GNorm = 0.0000, lr_0 = 5.5000e-04
Validation rmse = nan
Epoch 1
Loss = nan, PNorm = 56.4211, GNorm = 0.0000, lr_0 = 1.0000e-03
Validation rmse = nan
Epoch 2
Loss = nan, PNorm = 56.4211, GNorm = 0.0000, lr_0 = 9.7678e-04
Validation rmse = nan
Epoch 3
Loss = nan, PNorm = 56.4211, GNorm = 0.0000, lr_0 = 9.5410e-04
…
