…
 'separate_val_path': None,
 'show_individual_scores': False,
 'solvation': False,
 'split_sizes': [0.8, 0.1, 0.1],
 'split_type': 'random',
 'test': False,
 'test_fold_index': None,
 'undirected': False,
 'use_compound_names': False,
 'use_input_features': None,
 'val_fold_index': None,
 'warmup_epochs': 2.0}
Loading data
Number of tasks = 1
Splitting data with seed 0
Total size = 2,092 | train size = 1,673 | val size = 209 | test size = 210
Fitting scaler
Building model 0
MoleculeModel(
  (encoder): MPN(
    (encoder): MPNEncoder(
      (dropout_layer): Dropout(p=0.1, inplace=False)
      (act_func): ReLU()
      (W_i): Linear(in_features=66, out_features=100, bias=False)
      (W_h): Linear(in_features=100, out_features=100, bias=False)
      (W_o): Linear(in_features=152, out_features=100, bias=True)
    )
  )
  (ffn): Sequential(
    (0): Dropout(p=0.1, inplace=False)
    (1): Linear(in_features=102, out_features=100, bias=True)
    (2): ReLU()
    (3): Dropout(p=0.1, inplace=False)
    (4): Linear(in_features=100, out_features=100, bias=True)
    (5): ReLU()
    (6): Dropout(p=0.1, inplace=False)
    (7): Linear(in_features=100, out_features=1, bias=True)
  )
)
Number of parameters = 52,401
Epoch 0
Loss = 2.0817e-02, PNorm = 22.5145, GNorm = 3.1068, lr_0 = 2.3636e-04
Loss = 1.6923e-02, PNorm = 22.5136, GNorm = 7.8297, lr_0 = 3.7273e-04
Fold 0
{'Tmelt': True,
 'activation': 'ReLU',
 'atom_messages': False,
 'batch_size': 50,
 'bias': False,
 'checkpoint_dir': None,
 'checkpoint_path': None,
 'checkpoint_paths': None,
…
 'show_individual_scores': False,
 'solvation': False,
 'split_sizes': [0.8, 0.1, 0.1],
 'split_type': 'random',
 'test': False,
 'test_fold_index': None,
 'undirected': False,
 'use_compound_names': False,
 'use_input_features': ['data/Hfus/symm_Hfus.csv'],
 'val_fold_index': None,
 'warmup_epochs': 2.0}
Loading data
Number of tasks = 1
Splitting data with seed 0
Total size = 1,901 | train size = 1,520 | val size = 190 | test size = 191
Fitting scaler
Building model 0
MoleculeModel(
  (encoder): MPN(
    (encoder): MPNEncoder(
      (dropout_layer): Dropout(p=0.1, inplace=False)
      (act_func): ReLU()
      (W_i): Linear(in_features=66, out_features=100, bias=False)
      (W_h): Linear(in_features=100, out_features=100, bias=False)
      (W_o): Linear(in_features=152, out_features=100, bias=True)
    )
  )
  (ffn): Sequential(
    (0): Dropout(p=0.1, inplace=False)
    (1): Linear(in_features=103, out_features=100, bias=True)
    (2): ReLU()
    (3): Dropout(p=0.1, inplace=False)
    (4): Linear(in_features=100, out_features=100, bias=True)
    (5): ReLU()
    (6): Dropout(p=0.1, inplace=False)
    (7): Linear(in_features=100, out_features=1, bias=True)
  )
)
Number of parameters = 52,501
Epoch 0
Loss = 1.7210e-02, PNorm = 22.4232, GNorm = 4.3134, lr_0 = 2.5000e-04
Loss = 2.4232e-02, PNorm = 22.4216, GNorm = 3.8816, lr_0 = 4.0000e-04
Loss = 2.3453e-02, PNorm = 22.4223, GNorm = 1.3452, lr_0 = 5.5000e-04
Validation rmse = 16.813417
Epoch 1
Loss = 1.6554e-02, PNorm = 22.4279, GNorm = 2.7445, lr_0 = 7.0000e-04
…
