…
 'show_individual_scores': False,
 'solvation': True,
 'split_sizes': [0.8, 0.1, 0.1],
 'split_type': 'random',
 'test': False,
 'test_fold_index': None,
 'undirected': False,
 'use_compound_names': False,
 'use_input_features': None,
 'val_fold_index': None,
 'warmup_epochs': 2.0}
Loading data
Number of tasks = 1
Splitting data with seed 0
Total size = 31,613 | train size = 25,290 | val size = 3,161 | test size = 3,162
Fitting scaler
Building model 0
MoleculeModel(
  (encoder): MPN_solvation(
    (encoder_solute): MPNEncoder(
      (dropout_layer): Dropout(p=0.2, inplace=False)
      (act_func): ReLU()
      (W_i): Linear(in_features=173, out_features=300, bias=False)
      (W_h): Linear(in_features=300, out_features=300, bias=False)
      (W_o): Linear(in_features=459, out_features=300, bias=True)
    )
    (encoder_solvent): MPNEncoder(
      (dropout_layer): Dropout(p=0.2, inplace=False)
      (act_func): ReLU()
      (W_i): Linear(in_features=173, out_features=300, bias=False)
      (W_h): Linear(in_features=300, out_features=300, bias=False)
      (W_o): Linear(in_features=459, out_features=300, bias=True)
    )
  )
  (ffn): Sequential(
    (0): Dropout(p=0.2, inplace=False)
    (1): Linear(in_features=900, out_features=300, bias=True)
    (2): ReLU()
    (3): Dropout(p=0.2, inplace=False)
    (4): Linear(in_features=300, out_features=1, bias=True)
  )
)
Number of parameters = 830,401
Epoch 0
Loss = 1.9920e-02, PNorm = 47.0442, GNorm = 2.6721, lr_0 = 1.0891e-04
Loss = 2.3537e-02, PNorm = 47.0450, GNorm = 2.6618, lr_0 = 1.1782e-04
Loss = 1.9899e-02, PNorm = 47.0464, GNorm = 2.5155, lr_0 = 1.2673e-04
Loss = 1.9008e-02, PNorm = 47.0481, GNorm = 5.9683, lr_0 = 1.3564e-04
Loss = 2.2199e-02, PNorm = 47.0502, GNorm = 0.9330, lr_0 = 1.4455e-04
…
 'show_individual_scores': False,
 'solvation': True,
 'split_sizes': [0.8, 0.1, 0.1],
 'split_type': 'random',
 'test': False,
 'test_fold_index': None,
 'undirected': False,
 'use_compound_names': False,
 'use_input_features': None,
 'val_fold_index': None,
 'warmup_epochs': 2.0}
Loading data
Number of tasks = 1
Splitting data with seed 0
Total size = 31,613 | train size = 25,290 | val size = 3,161 | test size = 3,162
Fitting scaler
Building model 0
MoleculeModel(
  (encoder): MPN_solvation(
    (encoder_solute): MPNEncoder(
      (dropout_layer): Dropout(p=0.1, inplace=False)
      (act_func): ReLU()
      (W_i): Linear(in_features=173, out_features=1000, bias=False)
      (W_h): Linear(in_features=1000, out_features=1000, bias=False)
      (W_o): Linear(in_features=1159, out_features=1000, bias=True)
    )
    (encoder_solvent): MPNEncoder(
      (dropout_layer): Dropout(p=0.1, inplace=False)
      (act_func): ReLU()
      (W_i): Linear(in_features=173, out_features=1000, bias=False)
      (W_h): Linear(in_features=1000, out_features=1000, bias=False)
      (W_o): Linear(in_features=1159, out_features=1000, bias=True)
    )
  )
  (ffn): Sequential(
    (0): Dropout(p=0.1, inplace=False)
    (1): Linear(in_features=3000, out_features=1000, bias=True)
    (2): ReLU()
    (3): Dropout(p=0.1, inplace=False)
    (4): Linear(in_features=1000, out_features=1000, bias=True)
    (5): ReLU()
    (6): Dropout(p=0.1, inplace=False)
    (7): Linear(in_features=1000, out_features=1000, bias=True)
    (8): ReLU()
    (9): Dropout(p=0.1, inplace=False)
    (10): Linear(in_features=1000, out_features=1000, bias=True)
    (11): ReLU()
    (12): Dropout(p=0.1, inplace=False)
    (13): Linear(in_features=1000, out_features=1, bias=True)
  )
)
Number of parameters = 10,671,001
Epoch 0
Loss = 1.8455e-02, PNorm = 96.1079, GNorm = 1.8336, lr_0 = 1.0891e-04
Loss = 2.3388e-02, PNorm = 96.1161, GNorm = 3.0894, lr_0 = 1.1782e-04
Loss = 1.9140e-02, PNorm = 96.1254, GNorm = 1.3974, lr_0 = 1.2673e-04
Loss = 1.9124e-02, PNorm = 96.1312, GNorm = 3.1320, lr_0 = 1.3564e-04
Loss = 2.0693e-02, PNorm = 96.1418, GNorm = 0.9450, lr_0 = 1.4455e-04
…
 'show_individual_scores': False,
 'solvation': True,
 'split_sizes': [0.8, 0.1, 0.1],
 'split_type': 'random',
 'test': False,
 'test_fold_index': None,
 'undirected': False,
 'use_compound_names': False,
 'use_input_features': None,
 'val_fold_index': None,
 'warmup_epochs': 2.0}
Loading data
Number of tasks = 1
Splitting data with seed 0
Total size = 7 | train size = 5 | val size = 1 | test size = 1
Fitting scaler
Building model 0
MoleculeModel(
  (encoder): MPN_solvation(
    (encoder_solute): MPNEncoder(
      (dropout_layer): Dropout(p=0.0, inplace=False)
      (act_func): ReLU()
      (W_i): Linear(in_features=117, out_features=300, bias=False)
      (W_h): Linear(in_features=300, out_features=300, bias=False)
      (W_o): Linear(in_features=403, out_features=300, bias=True)
    )
    (encoder_solvent): MPNEncoder(
      (dropout_layer): Dropout(p=0.0, inplace=False)
      (act_func): ReLU()
      (W_i): Linear(in_features=117, out_features=300, bias=False)
      (W_h): Linear(in_features=300, out_features=300, bias=False)
      (W_o): Linear(in_features=403, out_features=300, bias=True)
    )
  )
  (ffn): Sequential(
    (0): Dropout(p=0.0, inplace=False)
    (1): Linear(in_features=600, out_features=300, bias=True)
    (2): ReLU()
    (3): Dropout(p=0.0, inplace=False)
    (4): Linear(in_features=300, out_features=1, bias=True)
  )
)
Number of parameters = 673,201
Epoch 0
Validation rmse = 1.020830
Epoch 1
Loss = 3.2728e-01, PNorm = 45.0427, GNorm = 15.2298, lr_0 = 1.0000e-03
Validation rmse = 0.998972
Epoch 2
Validation rmse = 0.759310
Epoch 3
Loss = 2.4359e-01, PNorm = 45.0668, GNorm = 2.2401, lr_0 = 8.4834e-04
Validation rmse = 0.288490
Epoch 4
Validation rmse = 0.629210
Epoch 5
…
 'show_individual_scores': False,
 'solvation': True,
 'split_sizes': [0.8, 0.1, 0.1],
 'split_type': 'random',
 'test': False,
 'test_fold_index': None,
 'undirected': False,
 'use_compound_names': False,
 'use_input_features': None,
 'val_fold_index': None,
 'warmup_epochs': 2.0}
Loading data
Number of tasks = 1
Splitting data with seed 0
Total size = 7 | train size = 5 | val size = 1 | test size = 1
Fitting scaler
Building model 0
MoleculeModel(
  (encoder): MPN_solvation_attention(
    (encoder): MPNEncoder_attention(
      (dropout_layer): Dropout(p=0.0, inplace=False)
      (act_func): ReLU()
      (W_i): Linear(in_features=117, out_features=300, bias=False)
      (W_h): Linear(in_features=300, out_features=300, bias=False)
      (W_o): Linear(in_features=403, out_features=300, bias=True)
      (Wa_i): Linear(in_features=234, out_features=300, bias=False)
      (Wa_o): Linear(in_features=300, out_features=1, bias=True)
    )
  )
  (ffn): Sequential(
    (0): Dropout(p=0.0, inplace=False)
    (1): Linear(in_features=600, out_features=300, bias=True)
    (2): ReLU()
    (3): Dropout(p=0.0, inplace=False)
    (4): Linear(in_features=300, out_features=1, bias=True)
  )
)
Number of parameters = 497,402
Epoch 0
Fold 0
{'activation': 'ReLU',
 'atom_messages': False,
 'batch_size': 2,
 'bias': False,
 'checkpoint_dir': None,
 'checkpoint_path': None,
 'checkpoint_paths': None,
 'config_path': None,
 'crossval_index_dir': None,
 'crossval_index_file': None,
 'cuda': False,
 'data_path': 'data/solvation/MNSol_compsol_cleaned_averaged.csv',
…
 'show_individual_scores': False,
 'solvation': True,
 'split_sizes': [0.8, 0.1, 0.1],
 'split_type': 'random',
 'test': False,
 'test_fold_index': None,
 'undirected': False,
 'use_compound_names': False,
 'use_input_features': None,
 'val_fold_index': None,
 'warmup_epochs': 2.0}
Loading data
Number of tasks = 1
Splitting data with seed 0
Total size = 7 | train size = 5 | val size = 1 | test size = 1
Fitting scaler
Building model 0
MoleculeModel(
  (encoder): MPN_solvation_attention(
    (encoder): MPNEncoder_attention(
      (dropout_layer): Dropout(p=0.0, inplace=False)
      (act_func): ReLU()
      (W_i): Linear(in_features=117, out_features=3, bias=False)
      (W_h): Linear(in_features=3, out_features=3, bias=False)
      (W_o): Linear(in_features=106, out_features=3, bias=True)
      (attention): Attention(
        (dropout_layer): Dropout(p=0.0, inplace=False)
        (act_func): ReLU()
        (Wa_i): Linear(in_features=234, out_features=3, bias=False)
        (Wa_o): Linear(in_features=3, out_features=1, bias=True)
      )
    )
  )
  (ffn): Sequential(
    (0): Dropout(p=0.0, inplace=False)
    (1): Linear(in_features=6, out_features=3, bias=True)
    (2): ReLU()
    (3): Dropout(p=0.0, inplace=False)
    (4): Linear(in_features=3, out_features=1, bias=True)
  )
)
Number of parameters = 1,412
Epoch 0
Fold 0
{'activation': 'ReLU',
 'atom_messages': False,
 'batch_size': 2,
 'bias': False,
 'checkpoint_dir': None,
 'checkpoint_path': None,
 'checkpoint_paths': None,
 'config_path': None,
 'crossval_index_dir': None,
 'crossval_index_file': None,
 'cuda': False,
 'data_path': 'data/solvation/MNSol_compsol_cleaned_averaged.csv',
…
 'show_individual_scores': False,
 'solvation': True,
 'split_sizes': [0.8, 0.1, 0.1],
 'split_type': 'random',
 'test': False,
 'test_fold_index': None,
 'undirected': False,
 'use_compound_names': False,
 'use_input_features': None,
 'val_fold_index': None,
 'warmup_epochs': 2.0}
Loading data
Number of tasks = 1
Splitting data with seed 0
Total size = 7 | train size = 5 | val size = 1 | test size = 1
Fitting scaler
Building model 0
MoleculeModel(
  (encoder): MPN_solvation_attention(
    (encoder): MPNEncoder_attention(
      (dropout_layer): Dropout(p=0.0, inplace=False)
      (act_func): ReLU()
      (W_i): Linear(in_features=117, out_features=3, bias=False)
      (W_h): Linear(in_features=3, out_features=3, bias=False)
      (W_o): Linear(in_features=106, out_features=3, bias=True)
    )
    (attention): Attention(
      (dropout_layer): Dropout(p=0.0, inplace=False)
      (act_func): ReLU()
      (Wa_i): Linear(in_features=6, out_features=6, bias=False)
      (Wa_o): Linear(in_features=6, out_features=1, bias=True)
    )
  )
  (ffn): Sequential(
    (0): Dropout(p=0.0, inplace=False)
    (1): Linear(in_features=6, out_features=3, bias=True)
    (2): ReLU()
    (3): Dropout(p=0.0, inplace=False)
    (4): Linear(in_features=3, out_features=1, bias=True)
  )
)
Number of parameters = 749
Epoch 0
Fold 0
{'activation': 'ReLU',
 'atom_messages': False,
 'batch_size': 2,
 'bias': False,
 'checkpoint_dir': None,
 'checkpoint_path': None,
 'checkpoint_paths': None,
 'config_path': None,
 'crossval_index_dir': None,
 'crossval_index_file': None,
 'cuda': False,
 'data_path': 'data/solvation/MNSol_compsol_cleaned_averaged.csv',
…
 'show_individual_scores': False,
 'solvation': True,
 'split_sizes': [0.8, 0.1, 0.1],
 'split_type': 'random',
 'test': False,
 'test_fold_index': None,
 'undirected': False,
 'use_compound_names': False,
 'use_input_features': None,
 'val_fold_index': None,
 'warmup_epochs': 2.0}
Loading data
Number of tasks = 1
Splitting data with seed 0
Total size = 7 | train size = 5 | val size = 1 | test size = 1
Fitting scaler
Building model 0
MoleculeModel(
  (encoder): MPN_solvation_attention(
    (encoder): MPNEncoder_attention(
      (dropout_layer): Dropout(p=0.0, inplace=False)
      (act_func): ReLU()
      (W_i): Linear(in_features=117, out_features=100, bias=False)
      (W_h): Linear(in_features=100, out_features=100, bias=False)
      (W_o): Linear(in_features=203, out_features=100, bias=True)
    )
    (attention): Attention(
      (dropout_layer): Dropout(p=0.0, inplace=False)
      (act_func): ReLU()
      (Wa_i): Linear(in_features=200, out_features=200, bias=False)
      (Wa_o): Linear(in_features=200, out_features=1, bias=True)
    )
  )
  (ffn): Sequential(
    (0): Dropout(p=0.0, inplace=False)
    (1): Linear(in_features=200, out_features=100, bias=True)
    (2): ReLU()
    (3): Dropout(p=0.0, inplace=False)
    (4): Linear(in_features=100, out_features=1, bias=True)
  )
)
Number of parameters = 102,502
Epoch 0
Fold 0
{'activation': 'ReLU',
 'atom_messages': False,
 'batch_size': 2,
 'bias': False,
 'checkpoint_dir': None,
 'checkpoint_path': None,
 'checkpoint_paths': None,
 'config_path': None,
 'crossval_index_dir': None,
 'crossval_index_file': None,
 'cuda': False,
 'data_path': 'data/solvation/MNSol_compsol_cleaned_averaged.csv',
…
