…
 'separate_val_path': None,
 'show_individual_scores': False,
 'solvation': False,
 'split_sizes': [0.8, 0.1, 0.1],
 'split_type': 'random',
 'test': False,
 'test_fold_index': None,
 'undirected': False,
 'use_compound_names': False,
 'use_input_features': None,
 'val_fold_index': None,
 'warmup_epochs': 2.0}
Loading data
Number of tasks = 1
Splitting data with seed 0
Total size = 10 | train size = 8 | val size = 1 | test size = 1
Fitting scaler
Building model 0
MoleculeModel(
  (encoder): MPN(
    (encoder): MPNEncoder(
      (dropout_layer): Dropout(p=0.0, inplace=False)
      (act_func): ReLU()
      (W_i): Linear(in_features=87, out_features=100, bias=False)
      (W_h): Linear(in_features=100, out_features=100, bias=False)
      (W_o): Linear(in_features=173, out_features=100, bias=True)
    )
  )
  (ffn): Sequential(
    (0): Dropout(p=0.0, inplace=False)
    (1): Linear(in_features=100, out_features=100, bias=True)
    (2): ReLU()
    (3): Dropout(p=0.0, inplace=False)
    (4): Linear(in_features=100, out_features=1, bias=True)
  )
)
Number of parameters = 46,301
Epoch 0
Fold 0
{'Tmelt': False,
 'activation': 'ReLU',
 'atom_messages': False,
 'batch_size': 1,
 'bias': False,
 'checkpoint_dir': None,
 'checkpoint_path': None,
 'checkpoint_paths': None,
 'config_path': None,
 'crossval_index_dir': None,
 'crossval_index_file': None,
 'cuda': False,
 'data_path': 'data/Tmelt/test.csv',
…
 'show_individual_scores': False,
 'solvation': True,
 'split_sizes': [0.8, 0.1, 0.1],
 'split_type': 'random',
 'test': False,
 'test_fold_index': None,
 'undirected': False,
 'use_compound_names': False,
 'use_input_features': None,
 'val_fold_index': None,
 'warmup_epochs': 2.0}
Loading data
Number of tasks = 1
Splitting data with seed 0
Total size = 1,550 | train size = 1,240 | val size = 155 | test size = 155
Fitting scaler
Building model 0
MoleculeModel(
  (encoder): MPN_solvation(
    (encoder_solute): MPNEncoder(
      (dropout_layer): Dropout(p=0.1, inplace=False)
      (act_func): ReLU()
      (W_i): Linear(in_features=87, out_features=100, bias=False)
      (W_h): Linear(in_features=100, out_features=100, bias=False)
      (W_o): Linear(in_features=173, out_features=100, bias=True)
    )
    (encoder_solvent): MPNEncoder(
      (dropout_layer): Dropout(p=0.1, inplace=False)
      (act_func): ReLU()
      (W_i): Linear(in_features=87, out_features=100, bias=False)
      (W_h): Linear(in_features=100, out_features=100, bias=False)
      (W_o): Linear(in_features=173, out_features=100, bias=True)
    )
  )
  (ffn): Sequential(
    (0): Dropout(p=0.1, inplace=False)
    (1): Linear(in_features=200, out_features=100, bias=True)
    (2): ReLU()
    (3): Dropout(p=0.1, inplace=False)
    (4): Linear(in_features=100, out_features=100, bias=True)
    (5): ReLU()
    (6): Dropout(p=0.1, inplace=False)
    (7): Linear(in_features=100, out_features=1, bias=True)
  )
)
Number of parameters = 102,501
Epoch 0
Fold 0
{'Tmelt': False,
 'activation': 'ReLU',
 'atom_messages': False,
 'batch_size': 50,
 'bias': False,
 'checkpoint_dir': None,
 'checkpoint_path': None,
 'checkpoint_paths': None,
 'config_path': None,
 'crossval_index_dir': None,
 'crossval_index_file': None,
 'cuda': False,
 'data_path': 'data/COSMOtherm_TZVPD-FINE_small.csv',
…
 'show_individual_scores': False,
 'solvation': True,
 'split_sizes': [0.8, 0.1, 0.1],
 'split_type': 'random',
 'test': False,
 'test_fold_index': None,
 'undirected': False,
 'use_compound_names': False,
 'use_input_features': None,
 'val_fold_index': None,
 'warmup_epochs': 2.0}
Loading data
Number of tasks = 1
Splitting data with seed 0
Total size = 21,600 | train size = 17,280 | val size = 2,160 | test size = 2,160
Fitting scaler
Building model 0
MoleculeModel(
  (encoder): MPN_solvation(
    (encoder_solute): MPNEncoder(
      (dropout_layer): Dropout(p=0.0, inplace=False)
      (act_func): ReLU()
      (W_i): Linear(in_features=87, out_features=100, bias=False)
      (W_h): Linear(in_features=100, out_features=100, bias=False)
      (W_o): Linear(in_features=173, out_features=100, bias=True)
    )
    (encoder_solvent): MPNEncoder(
      (dropout_layer): Dropout(p=0.0, inplace=False)
      (act_func): ReLU()
      (W_i): Linear(in_features=87, out_features=100, bias=False)
      (W_h): Linear(in_features=100, out_features=100, bias=False)
      (W_o): Linear(in_features=173, out_features=100, bias=True)
    )
  )
  (ffn): Sequential(
    (0): Dropout(p=0.0, inplace=False)
    (1): Linear(in_features=200, out_features=100, bias=True)
    (2): ReLU()
    (3): Dropout(p=0.0, inplace=False)
    (4): Linear(in_features=100, out_features=1, bias=True)
  )
)
Number of parameters = 92,401
Epoch 0
Validation rmse = 4.323238
Epoch 1
Validation rmse = 2.573683
Epoch 2
Validation rmse = 1.762096
Epoch 3
Validation rmse = 1.412546
Epoch 4
Validation rmse = 1.307676
Epoch 5
Validation rmse = 1.324444
Epoch 6
Validation rmse = 1.311460
Epoch 7
Validation rmse = 1.113516
Epoch 8
Validation rmse = 1.022895
Epoch 9
…
 'solvation': True,
 'split_sizes': [0.8, 0.1, 0.1],
 'split_type': 'random',
 'test': False,
 'test_fold_index': None,
 'undirected': False,
 'use_compound_names': False,
 'use_input_features': None,
 'val_fold_index': None,
 'warmup_epochs': 2.0}
Loading data
Number of tasks = 1
Splitting data with seed 0
Total size = 8,867 | train size = 7,093 | val size = 887 | test size = 887
Fitting scaler
Building model 0
MoleculeModel(
  (encoder): MPN_solvation(
    (encoder_solute): MPNEncoder(
      (dropout_layer): Dropout(p=0.0, inplace=False)
      (act_func): LeakyReLU(negative_slope=0.1)
      (W_i): Linear(in_features=87, out_features=200, bias=False)
      (W_h): Linear(in_features=200, out_features=200, bias=False)
      (W_o): Linear(in_features=273, out_features=200, bias=True)
    )
    (encoder_solvent): MPNEncoder(
      (dropout_layer): Dropout(p=0.0, inplace=False)
      (act_func): LeakyReLU(negative_slope=0.1)
      (W_i): Linear(in_features=87, out_features=200, bias=False)
      (W_h): Linear(in_features=200, out_features=200, bias=False)
      (W_o): Linear(in_features=273, out_features=200, bias=True)
    )
  )
  (ffn): Sequential(
    (0): Dropout(p=0.0, inplace=False)
    (1): Linear(in_features=400, out_features=500, bias=True)
    (2): LeakyReLU(negative_slope=0.1)
    (3): Dropout(p=0.0, inplace=False)
    (4): Linear(in_features=500, out_features=500, bias=True)
    (5): LeakyReLU(negative_slope=0.1)
    (6): Dropout(p=0.0, inplace=False)
    (7): Linear(in_features=500, out_features=1, bias=True)
  )
)
Number of parameters = 675,901
Epoch 0
Loss = 1.7764e-02, PNorm = 45.3839, GNorm = 2.5261, lr_0 = 1.0000e-03
Loss = 6.3967e-03, PNorm = 45.4392, GNorm = 1.4084, lr_0 = 1.0000e-03
Loss = 5.1339e-03, PNorm = 45.4680, GNorm = 1.9934, lr_0 = 1.0000e-03
Loss = 6.1734e-03, PNorm = 45.4954, GNorm = 2.3714, lr_0 = 1.0000e-03
Loss = 4.7299e-03, PNorm = 45.5200, GNorm = 1.8396, lr_0 = 1.0000e-03
…
