…
 'show_individual_scores': False,
 'solvation': False,
 'split_sizes': [0.8, 0.1, 0.1],
 'split_type': 'random',
 'test': False,
 'test_fold_index': None,
 'undirected': False,
 'use_compound_names': False,
 'use_input_features': ['data/Hfus/symm_Hfus.csv'],
 'val_fold_index': None,
 'warmup_epochs': 2.0}
Loading data
Number of tasks = 1
Splitting data with seed 0
Total size = 1,854 | train size = 1,483 | val size = 185 | test size = 186
Fitting scaler
Building model 0
MoleculeModel(
  (encoder): MPN(
    (encoder): MPNEncoder(
      (dropout_layer): Dropout(p=0.1, inplace=False)
      (act_func): ReLU()
      (W_i): Linear(in_features=66, out_features=100, bias=False)
      (W_h): Linear(in_features=100, out_features=100, bias=False)
      (W_o): Linear(in_features=152, out_features=100, bias=True)
    )
  )
  (ffn): Sequential(
    (0): Dropout(p=0.1, inplace=False)
    (1): Linear(in_features=103, out_features=100, bias=True)
    (2): ReLU()
    (3): Dropout(p=0.1, inplace=False)
    (4): Linear(in_features=100, out_features=100, bias=True)
    (5): ReLU()
    (6): Dropout(p=0.1, inplace=False)
    (7): Linear(in_features=100, out_features=1, bias=True)
  )
)
Number of parameters = 52,501
Epoch 0
Loss = 2.2257e-02, PNorm = 22.3824, GNorm = 6.0862, lr_0 = 2.5517e-05
Loss = 2.4495e-02, PNorm = 22.3819, GNorm = 8.2380, lr_0 = 4.1034e-05
Validation rmse = 2.870883
Epoch 1
Loss = 1.8894e-02, PNorm = 22.3812, GNorm = 1.5849, lr_0 = 5.6552e-05
Loss = 2.1672e-02, PNorm = 22.3807, GNorm = 1.7990, lr_0 = 7.2069e-05
…
 'show_individual_scores': False,
 'solvation': False,
 'split_sizes': [0.8, 0.1, 0.1],
 'split_type': 'random',
 'test': False,
 'test_fold_index': None,
 'undirected': False,
 'use_compound_names': False,
 'use_input_features': ['data/Hfus/symm_Hfus.csv'],
 'val_fold_index': None,
 'warmup_epochs': 2.0}
Loading data
Number of tasks = 1
Splitting data with seed 0
Total size = 1,854 | train size = 1,483 | val size = 185 | test size = 186
Fitting scaler
Building model 0
MoleculeModel(
  (encoder): MPN(
    (encoder): MPNEncoder(
      (dropout_layer): Dropout(p=0.1, inplace=False)
      (act_func): ReLU()
      (W_i): Linear(in_features=66, out_features=100, bias=True)
      (W_h): Linear(in_features=100, out_features=100, bias=True)
      (W_o): Linear(in_features=152, out_features=100, bias=True)
    )
  )
  (ffn): Sequential(
    (0): Dropout(p=0.1, inplace=False)
    (1): Linear(in_features=103, out_features=100, bias=True)
    (2): ReLU()
    (3): Dropout(p=0.1, inplace=False)
    (4): Linear(in_features=100, out_features=100, bias=True)
    (5): ReLU()
    (6): Dropout(p=0.1, inplace=False)
    (7): Linear(in_features=100, out_features=1, bias=True)
  )
)
Number of parameters = 52,701
Epoch 0
Loss = 1.7350e-02, PNorm = 22.4313, GNorm = 11.6745, lr_0 = 1.6897e-04
Loss = 2.2261e-02, PNorm = 22.4305, GNorm = 21.7999, lr_0 = 2.3793e-04
Validation rmse = 2.710669
Epoch 1
Loss = 1.8473e-02, PNorm = 22.4304, GNorm = 8.7525, lr_0 = 3.0690e-04
Loss = 2.0734e-02, PNorm = 22.4315, GNorm = 22.1439, lr_0 = 3.7586e-04
…
 'show_individual_scores': False,
 'solvation': False,
 'split_sizes': [0.8, 0.1, 0.1],
 'split_type': 'random',
 'test': False,
 'test_fold_index': None,
 'undirected': False,
 'use_compound_names': False,
 'use_input_features': ['data/Hfus/symm_Hfus.csv'],
 'val_fold_index': None,
 'warmup_epochs': 2.0}
Loading data
Number of tasks = 1
Splitting data with seed 0
Total size = 1,854 | train size = 1,483 | val size = 185 | test size = 186
Fitting scaler
Building model 0
MoleculeModel(
  (encoder): MPN(
    (encoder): MPNEncoder(
      (dropout_layer): Dropout(p=0.1, inplace=False)
      (act_func): ReLU()
      (W_i): Linear(in_features=66, out_features=100, bias=False)
      (W_h): Linear(in_features=100, out_features=100, bias=False)
      (W_o): Linear(in_features=152, out_features=100, bias=True)
    )
  )
  (ffn): Sequential(
    (0): Dropout(p=0.1, inplace=False)
    (1): Linear(in_features=103, out_features=100, bias=True)
    (2): ReLU()
    (3): Dropout(p=0.1, inplace=False)
    (4): Linear(in_features=100, out_features=100, bias=True)
    (5): ReLU()
    (6): Dropout(p=0.1, inplace=False)
    (7): Linear(in_features=100, out_features=100, bias=True)
    (8): ReLU()
    (9): Dropout(p=0.1, inplace=False)
    (10): Linear(in_features=100, out_features=100, bias=True)
    (11): ReLU()
    (12): Dropout(p=0.1, inplace=False)
    (13): Linear(in_features=100, out_features=1, bias=True)
  )
)
Number of parameters = 72,701
Epoch 0
Loss = 1.7519e-02, PNorm = 26.5131, GNorm = 1.1553, lr_0 = 1.6897e-04
Loss = 2.2100e-02, PNorm = 26.5125, GNorm = 1.8404, lr_0 = 2.3793e-04
Validation rmse = 2.733017
Epoch 1
Loss = 1.8601e-02, PNorm = 26.5123, GNorm = 1.3002, lr_0 = 3.0690e-04
Loss = 2.1088e-02, PNorm = 26.5129, GNorm = 1.1313, lr_0 = 3.7586e-04
…
