…
 'separate_val_path': None,
 'show_individual_scores': False,
 'split_sizes': [0.8, 0.1, 0.1],
 'split_type': 'random',
 'test': False,
 'test_fold_index': None,
 'undirected': False,
 'use_compound_names': False,
 'use_input_features': None,
 'val_fold_index': None,
 'warmup_epochs': 2.0}
Loading data
Number of tasks = 1
Splitting data with seed 0
Total size = 684 | train size = 547 | val size = 68 | test size = 69
Fitting scaler
Building model 0
MoleculeModel(
  (encoder): MPN(
    (encoder): MPNEncoder(
      (dropout_layer): Dropout(p=0.1, inplace=False)
      (act_func): ReLU()
      (W_i): Linear(in_features=161, out_features=1000, bias=False)
      (W_h): Linear(in_features=1000, out_features=1000, bias=False)
      (W_o): Linear(in_features=1147, out_features=1000, bias=True)
    )
  )
  (ffn): Sequential(
    (0): Dropout(p=0.1, inplace=False)
    (1): Linear(in_features=1000, out_features=1000, bias=True)
    (2): ReLU()
    (3): Dropout(p=0.1, inplace=False)
    (4): Linear(in_features=1000, out_features=1, bias=True)
  )
)
Number of parameters = 3,311,001
Epoch 0
Loss = 1.6746e-02, PNorm = 57.8790, GNorm = 2.5732, lr_0 = 5.5000e-04
Validation rmse = 34.247876
Epoch 1
Loss = 6.6449e-03, PNorm = 57.9778, GNorm = 1.5514, lr_0 = 1.0000e-03
Validation rmse = 23.301266
Epoch 2
Loss = 3.5742e-03, PNorm = 58.0891, GNorm = 5.5027, lr_0 = 9.7678e-04
Validation rmse = 15.989054
…
 'separate_val_path': None,
 'show_individual_scores': False,
 'split_sizes': [0.8, 0.1, 0.1],
 'split_type': 'random',
 'test': False,
 'test_fold_index': None,
 'undirected': False,
 'use_compound_names': False,
 'use_input_features': None,
 'val_fold_index': None,
 'warmup_epochs': 2.0}
Loading data
Number of tasks = 1
Splitting data with seed 0
Total size = 684 | train size = 547 | val size = 68 | test size = 69
Fitting scaler
Building model 0
MoleculeModel(
  (encoder): MPN(
    (encoder): MPNEncoder(
      (dropout_layer): Dropout(p=0.1, inplace=False)
      (act_func): ReLU()
      (W_i): Linear(in_features=167, out_features=1000, bias=False)
      (W_h): Linear(in_features=1000, out_features=1000, bias=False)
      (W_o): Linear(in_features=1153, out_features=1000, bias=True)
    )
  )
  (ffn): Sequential(
    (0): Dropout(p=0.1, inplace=False)
    (1): Linear(in_features=1000, out_features=1000, bias=True)
    (2): ReLU()
    (3): Dropout(p=0.1, inplace=False)
    (4): Linear(in_features=1000, out_features=1, bias=True)
  )
)
Number of parameters = 3,323,001
Epoch 0
Loss = 1.5568e-02, PNorm = 58.0003, GNorm = 8.4302, lr_0 = 5.5000e-04
Validation rmse = 28.576670
Epoch 1
Loss = 6.8802e-03, PNorm = 58.0918, GNorm = 3.7851, lr_0 = 1.0000e-03
Validation rmse = 21.636588
Epoch 2
Loss = 3.2218e-03, PNorm = 58.1999, GNorm = 0.8552, lr_0 = 9.7678e-04
Validation rmse = 19.035205
…
