…
 'show_individual_scores': False,
 'solvation': False,
 'split_sizes': [0.8, 0.1, 0.1],
 'split_type': 'random',
 'test': False,
 'test_fold_index': None,
 'undirected': False,
 'use_compound_names': False,
 'use_input_features': ['data/Hfus/symm_Hfus.csv'],
 'val_fold_index': None,
 'warmup_epochs': 2.0}
Loading data
Number of tasks = 1
Splitting data with seed 0
Total size = 1,854 | train size = 1,483 | val size = 185 | test size = 186
Fitting scaler
Building model 0
MoleculeModel(
  (encoder): MPN(
    (encoder): MPNEncoder(
      (dropout_layer): Dropout(p=0.1, inplace=False)
      (act_func): ReLU()
      (W_i): Linear(in_features=77, out_features=50, bias=False)
      (W_h): Linear(in_features=50, out_features=50, bias=False)
      (W_o): Linear(in_features=113, out_features=50, bias=True)
    )
  )
  (ffn): Sequential(
    (0): Dropout(p=0.1, inplace=False)
    (1): Linear(in_features=53, out_features=50, bias=True)
    (2): ReLU()
    (3): Dropout(p=0.1, inplace=False)
    (4): Linear(in_features=50, out_features=1, bias=True)
  )
)
Number of parameters = 14,801
Epoch 0
Loss = 2.9598e-02, PNorm = 15.2400, GNorm = 6.1920, lr_0 = 2.5517e-04
Loss = 2.4303e-02, PNorm = 15.2408, GNorm = 2.1778, lr_0 = 4.1034e-04
Validation rmse = 2.722743
Epoch 1
Loss = 1.7328e-02, PNorm = 15.2411, GNorm = 2.9039, lr_0 = 5.6552e-04
Loss = 2.0897e-02, PNorm = 15.2401, GNorm = 1.3549, lr_0 = 7.2069e-04
…
 'show_individual_scores': False,
 'solvation': False,
 'split_sizes': [0.8, 0.1, 0.1],
 'split_type': 'random',
 'test': False,
 'test_fold_index': None,
 'undirected': False,
 'use_compound_names': False,
 'use_input_features': ['data/Hfus/symm_Hfus.csv'],
 'val_fold_index': None,
 'warmup_epochs': 2.0}
Loading data
Number of tasks = 1
Splitting data with seed 0
Total size = 1,854 | train size = 1,483 | val size = 185 | test size = 186
Fitting scaler
Building model 0
MoleculeModel(
  (encoder): MPN(
    (encoder): MPNEncoder(
      (dropout_layer): Dropout(p=0.1, inplace=False)
      (act_func): ReLU()
      (W_i): Linear(in_features=77, out_features=50, bias=False)
      (W_h): Linear(in_features=50, out_features=50, bias=False)
      (W_o): Linear(in_features=113, out_features=50, bias=True)
    )
  )
  (ffn): Sequential(
    (0): Dropout(p=0.1, inplace=False)
    (1): Linear(in_features=53, out_features=50, bias=True)
    (2): ReLU()
    (3): Dropout(p=0.1, inplace=False)
    (4): Linear(in_features=50, out_features=50, bias=True)
    (5): ReLU()
    (6): Dropout(p=0.1, inplace=False)
    (7): Linear(in_features=50, out_features=1, bias=True)
  )
)
Number of parameters = 17,351
Epoch 0
Loss = 4.8296e-02, PNorm = 16.7990, GNorm = 2.0497, lr_0 = 1.6081e-03
Loss = 3.7910e-02, PNorm = 16.8121, GNorm = 1.6167, lr_0 = 2.2162e-03
Loss = 4.5009e-02, PNorm = 16.8418, GNorm = 1.9263, lr_0 = 2.8243e-03
Loss = 4.5009e-02, PNorm = 16.9035, GNorm = 1.8405, lr_0 = 3.4324e-03
Loss = 3.9750e-02, PNorm = 16.9738, GNorm = 2.5789, lr_0 = 4.0405e-03
…
