…
 'show_individual_scores': False,
 'solvation': True,
 'split_sizes': [0.8, 0.1, 0.1],
 'split_type': 'random',
 'test': False,
 'test_fold_index': None,
 'undirected': False,
 'use_compound_names': False,
 'use_input_features': None,
 'val_fold_index': None,
 'warmup_epochs': 2.0}
Loading data
Number of tasks = 1
Splitting data with seed 0
Total size = 2,449 | train size = 1,959 | val size = 245 | test size = 245
Fitting scaler
Building model 0
MoleculeModel(
  (encoder): MPN_solvation_attention(
    (encoder): MPNEncoder_attention(
      (dropout_layer): Dropout(p=0.05, inplace=False)
      (act_func): ReLU()
      (W_i): Linear(in_features=117, out_features=100, bias=False)
      (W_h): Linear(in_features=100, out_features=100, bias=False)
      (W_o): Linear(in_features=203, out_features=100, bias=True)
    )
    (attention): Attention(
      (sigm): Sigmoid()
      (act_func): ReLU()
      (att_1): Linear(in_features=200, out_features=200, bias=True)
      (att_2): Linear(in_features=200, out_features=1, bias=True)
    )
  )
  (ffn): Sequential(
    (0): Dropout(p=0.05, inplace=False)
    (1): Linear(in_features=400, out_features=100, bias=True)
    (2): ReLU()
    (3): Dropout(p=0.05, inplace=False)
    (4): Linear(in_features=100, out_features=1, bias=True)
  )
)
Number of parameters = 122,702
Epoch 0
Loss = 1.7978e-02, PNorm = 26.5246, GNorm = 1.9660, lr_0 = 2.1538e-04
Loss = 1.8933e-02, PNorm = 26.5277, GNorm = 2.4900, lr_0 = 3.3077e-04
Loss = 1.4241e-02, PNorm = 26.5344, GNorm = 1.7641, lr_0 = 4.4615e-04
Validation rmse = 2.233862
Epoch 1
Loss = 1.5615e-02, PNorm = 26.5478, GNorm = 6.7179, lr_0 = 5.6154e-04
…
 'show_individual_scores': False,
 'solvation': True,
 'split_sizes': [0.8, 0.1, 0.1],
 'split_type': 'random',
 'test': False,
 'test_fold_index': None,
 'undirected': False,
 'use_compound_names': False,
 'use_input_features': None,
 'val_fold_index': None,
 'warmup_epochs': 2.0}
Loading data
Number of tasks = 1
Splitting data with seed 0
Total size = 2,449 | train size = 1,959 | val size = 245 | test size = 245
Fitting scaler
Building model 0
MoleculeModel(
  (encoder): MPN_solvation(
    (encoder_solute): MPNEncoder(
      (dropout_layer): Dropout(p=0.05, inplace=False)
      (act_func): ReLU()
      (W_i): Linear(in_features=117, out_features=100, bias=False)
      (W_h): Linear(in_features=100, out_features=100, bias=False)
      (W_o): Linear(in_features=203, out_features=100, bias=True)
    )
    (encoder_solvent): MPNEncoder(
      (dropout_layer): Dropout(p=0.05, inplace=False)
      (act_func): ReLU()
      (W_i): Linear(in_features=117, out_features=100, bias=False)
      (W_h): Linear(in_features=100, out_features=100, bias=False)
      (W_o): Linear(in_features=203, out_features=100, bias=True)
    )
  )
  (ffn): Sequential(
    (0): Dropout(p=0.05, inplace=False)
    (1): Linear(in_features=200, out_features=100, bias=True)
    (2): ReLU()
    (3): Dropout(p=0.05, inplace=False)
    (4): Linear(in_features=100, out_features=1, bias=True)
  )
)
Number of parameters = 104,401
Epoch 0
Loss = 1.9809e-02, PNorm = 28.6291, GNorm = 1.5537, lr_0 = 2.1538e-04
Loss = 1.9815e-02, PNorm = 28.6307, GNorm = 2.1224, lr_0 = 3.3077e-04
Loss = 1.4019e-02, PNorm = 28.6355, GNorm = 2.5925, lr_0 = 4.4615e-04
Validation rmse = 2.193666
Epoch 1
Loss = 1.4863e-02, PNorm = 28.6413, GNorm = 3.7836, lr_0 = 5.6154e-04
…
 'show_individual_scores': False,
 'solvation': True,
 'split_sizes': [0.8, 0.1, 0.1],
 'split_type': 'random',
 'test': False,
 'test_fold_index': None,
 'undirected': False,
 'use_compound_names': False,
 'use_input_features': None,
 'val_fold_index': None,
 'warmup_epochs': 2.0}
Loading data
Number of tasks = 1
Splitting data with seed 0
Total size = 2,449 | train size = 1,959 | val size = 245 | test size = 245
Fitting scaler
Building model 0
MoleculeModel(
  (encoder): MPN_solvation(
    (encoder_solute): MPNEncoder(
      (dropout_layer): Dropout(p=0.05, inplace=False)
      (act_func): ReLU()
      (W_i): Linear(in_features=117, out_features=300, bias=False)
      (W_h): Linear(in_features=300, out_features=300, bias=False)
      (W_o): Linear(in_features=403, out_features=300, bias=True)
    )
    (encoder_solvent): MPNEncoder(
      (dropout_layer): Dropout(p=0.05, inplace=False)
      (act_func): ReLU()
      (W_i): Linear(in_features=117, out_features=300, bias=False)
      (W_h): Linear(in_features=300, out_features=300, bias=False)
      (W_o): Linear(in_features=403, out_features=300, bias=True)
    )
  )
  (ffn): Sequential(
    (0): Dropout(p=0.05, inplace=False)
    (1): Linear(in_features=600, out_features=300, bias=True)
    (2): ReLU()
    (3): Dropout(p=0.05, inplace=False)
    (4): Linear(in_features=300, out_features=300, bias=True)
    (5): ReLU()
    (6): Dropout(p=0.05, inplace=False)
    (7): Linear(in_features=300, out_features=1, bias=True)
  )
)
Number of parameters = 763,501
Epoch 0
Loss = 1.5529e-02, PNorm = 48.2723, GNorm = 4.2331, lr_0 = 2.1538e-04
Loss = 1.4793e-02, PNorm = 48.2781, GNorm = 2.8173, lr_0 = 3.3077e-04
Loss = 9.9185e-03, PNorm = 48.2922, GNorm = 5.1363, lr_0 = 4.4615e-04
Validation rmse = 1.762309
Epoch 1
Loss = 7.8421e-03, PNorm = 48.3173, GNorm = 3.3306, lr_0 = 5.6154e-04
…
