…
 'show_individual_scores': False,
 'solvation': True,
 'split_sizes': [0.8, 0.1, 0.1],
 'split_type': 'random',
 'test': False,
 'test_fold_index': None,
 'undirected': False,
 'use_compound_names': False,
 'use_input_features': None,
 'val_fold_index': None,
 'warmup_epochs': 2.0}
Loading data
Number of tasks = 1
Splitting data with seed 0
Total size = 5,940 | train size = 4,752 | val size = 594 | test size = 594
Fitting scaler
Building model 0
MoleculeModel(
  (encoder): MPN_solvation_attention(
    (encoder): MPNEncoder_attention(
      (dropout_layer): Dropout(p=0.1, inplace=False)
      (act_func): ReLU()
      (W_i): Linear(in_features=117, out_features=200, bias=False)
      (W_h): Linear(in_features=200, out_features=200, bias=False)
      (W_o): Linear(in_features=303, out_features=200, bias=True)
    )
    (attention): Attention(
      (dropout_layer): Dropout(p=0.1, inplace=False)
      (act_func): ReLU()
      (Wa_i): Linear(in_features=400, out_features=400, bias=False)
      (Wa_o): Linear(in_features=400, out_features=1, bias=True)
    )
  )
  (ffn): Sequential(
    (0): Dropout(p=0.1, inplace=False)
    (1): Linear(in_features=400, out_features=200, bias=True)
    (2): ReLU()
    (3): Dropout(p=0.1, inplace=False)
    (4): Linear(in_features=200, out_features=1, bias=True)
  )
)
Number of parameters = 365,002
Epoch 0
Loss = 1.9788e-02, PNorm = 35.4618, GNorm = 1.2761, lr_0 = 1.4737e-04
Loss = 2.2986e-02, PNorm = 35.4639, GNorm = 1.9844, lr_0 = 1.9474e-04
Loss = 1.3766e-02, PNorm = 35.4683, GNorm = 2.8045, lr_0 = 2.4211e-04
Loss = 1.8789e-02, PNorm = 35.4749, GNorm = 2.5507, lr_0 = 2.8947e-04
Loss = 1.3797e-02, PNorm = 35.4872, GNorm = 2.6705, lr_0 = 3.3684e-04
…
 'show_individual_scores': False,
 'solvation': True,
 'split_sizes': [0.8, 0.1, 0.1],
 'split_type': 'random',
 'test': False,
 'test_fold_index': None,
 'undirected': False,
 'use_compound_names': False,
 'use_input_features': None,
 'val_fold_index': None,
 'warmup_epochs': 2.0}
Loading data
Number of tasks = 1
Splitting data with seed 0
Total size = 5,940 | train size = 4,752 | val size = 594 | test size = 594
Fitting scaler
Building model 0
MoleculeModel(
  (encoder): MPN_solvation(
    (encoder_solute): MPNEncoder(
      (dropout_layer): Dropout(p=0.1, inplace=False)
      (act_func): ReLU()
      (W_i): Linear(in_features=117, out_features=200, bias=False)
      (W_h): Linear(in_features=200, out_features=200, bias=False)
      (W_o): Linear(in_features=303, out_features=200, bias=True)
    )
    (encoder_solvent): MPNEncoder(
      (dropout_layer): Dropout(p=0.1, inplace=False)
      (act_func): ReLU()
      (W_i): Linear(in_features=117, out_features=200, bias=False)
      (W_h): Linear(in_features=200, out_features=200, bias=False)
      (W_o): Linear(in_features=303, out_features=200, bias=True)
    )
  )
  (ffn): Sequential(
    (0): Dropout(p=0.1, inplace=False)
    (1): Linear(in_features=400, out_features=200, bias=True)
    (2): ReLU()
    (3): Dropout(p=0.1, inplace=False)
    (4): Linear(in_features=200, out_features=1, bias=True)
  )
)
Number of parameters = 328,801
Epoch 0
Loss = 1.8707e-02, PNorm = 38.0924, GNorm = 5.4256, lr_0 = 1.4737e-04
Loss = 1.9091e-02, PNorm = 38.0931, GNorm = 5.0195, lr_0 = 1.9474e-04
Loss = 1.0488e-02, PNorm = 38.0944, GNorm = 4.2552, lr_0 = 2.4211e-04
Loss = 1.3876e-02, PNorm = 38.0975, GNorm = 3.7844, lr_0 = 2.8947e-04
Loss = 1.1637e-02, PNorm = 38.1039, GNorm = 2.1776, lr_0 = 3.3684e-04
…
 'show_individual_scores': False,
 'solvation': True,
 'split_sizes': [0.8, 0.1, 0.1],
 'split_type': 'random',
 'test': False,
 'test_fold_index': None,
 'undirected': False,
 'use_compound_names': False,
 'use_input_features': None,
 'val_fold_index': None,
 'warmup_epochs': 2.0}
Loading data
Number of tasks = 1
Splitting data with seed 0
Total size = 5,940 | train size = 4,752 | val size = 594 | test size = 594
Fitting scaler
Building model 0
MoleculeModel(
  (encoder): MPN_solvation_attention(
    (encoder): MPNEncoder_attention(
      (dropout_layer): Dropout(p=0.1, inplace=False)
      (act_func): ReLU()
      (W_i): Linear(in_features=117, out_features=200, bias=False)
      (W_h): Linear(in_features=200, out_features=200, bias=False)
      (W_o): Linear(in_features=303, out_features=200, bias=True)
    )
    (attention): Attention(
      (dropout_layer): Dropout(p=0.1, inplace=False)
      (act_func): ReLU()
      (att): Sequential(
        (0): Linear(in_features=400, out_features=400, bias=True)
        (1): ReLU()
        (2): Linear(in_features=400, out_features=1, bias=True)
      )
    )
  )
  (ffn): Sequential(
    (0): Dropout(p=0.1, inplace=False)
    (1): Linear(in_features=400, out_features=200, bias=True)
    (2): ReLU()
    (3): Dropout(p=0.1, inplace=False)
    (4): Linear(in_features=200, out_features=1, bias=True)
  )
)
Number of parameters = 365,402
Epoch 0
Fold 0
{'activation': 'ReLU',
 'atom_messages': False,
 'batch_size': 50,
 'bias': False,
 'checkpoint_dir': None,
 'checkpoint_path': None,
 'checkpoint_paths': None,
 'config_path': None,
 'crossval_index_dir': None,
 'crossval_index_file': None,
 'cuda': False,
 'data_path': 'data/solvation/MNSol_compsol_cleaned_averaged.csv',
…
 'show_individual_scores': False,
 'solvation': True,
 'split_sizes': [0.8, 0.1, 0.1],
 'split_type': 'random',
 'test': False,
 'test_fold_index': None,
 'undirected': False,
 'use_compound_names': False,
 'use_input_features': None,
 'val_fold_index': None,
 'warmup_epochs': 2.0}
Loading data
Number of tasks = 1
Splitting data with seed 0
Total size = 12 | train size = 9 | val size = 1 | test size = 2
Fitting scaler
Building model 0
MoleculeModel(
  (encoder): MPN_solvation_attention(
    (encoder): MPNEncoder_attention(
      (dropout_layer): Dropout(p=0.1, inplace=False)
      (act_func): ReLU()
      (W_i): Linear(in_features=117, out_features=10, bias=False)
      (W_h): Linear(in_features=10, out_features=10, bias=False)
      (W_o): Linear(in_features=113, out_features=10, bias=True)
    )
    (attention): Attention(
      (dropout_layer): Dropout(p=0.1, inplace=False)
      (act_func): ReLU()
      (att): Sequential(
        (0): Linear(in_features=20, out_features=20, bias=True)
        (1): ReLU()
        (2): Linear(in_features=20, out_features=1, bias=True)
        (3): Softmax(dim=1)
      )
    )
  )
  (ffn): Sequential(
    (0): Dropout(p=0.1, inplace=False)
    (1): Linear(in_features=20, out_features=10, bias=True)
    (2): ReLU()
    (3): Dropout(p=0.1, inplace=False)
    (4): Linear(in_features=10, out_features=1, bias=True)
  )
)
Number of parameters = 3,072
Epoch 0
Validation rmse = 6.924194
Epoch 1
Loss = 7.9679e-01, PNorm = 9.3311, GNorm = 6.9907, lr_0 = 6.0000e-04
Validation rmse = 6.801025
Epoch 2
Loss = 3.6486e-01, PNorm = 9.3303, GNorm = 2.8458, lr_0 = 9.8189e-04
Validation rmse = 6.657527
Epoch 3
Loss = 2.3255e+00, PNorm = 9.3295, GNorm = 14.1446, lr_0 = 8.9615e-04
Validation rmse = 6.547832
…
 'show_individual_scores': False,
 'solvation': True,
 'split_sizes': [0.8, 0.1, 0.1],
 'split_type': 'random',
 'test': False,
 'test_fold_index': None,
 'undirected': False,
 'use_compound_names': False,
 'use_input_features': None,
 'val_fold_index': None,
 'warmup_epochs': 2.0}
Loading data
Number of tasks = 1
Splitting data with seed 0
Total size = 5,940 | train size = 4,752 | val size = 594 | test size = 594
Fitting scaler
Building model 0
MoleculeModel(
  (encoder): MPN_solvation_attention(
    (encoder): MPNEncoder_attention(
      (dropout_layer): Dropout(p=0.1, inplace=False)
      (act_func): ReLU()
      (W_i): Linear(in_features=117, out_features=100, bias=False)
      (W_h): Linear(in_features=100, out_features=100, bias=False)
      (W_o): Linear(in_features=203, out_features=100, bias=True)
    )
    (attention): Attention(
      (dropout_layer): Dropout(p=0.1, inplace=False)
      (act_func): ReLU()
      (att_1): Linear(in_features=200, out_features=200, bias=True)
      (att_2): Linear(in_features=200, out_features=1, bias=True)
      (att_3): Softmax(dim=0)
    )
  )
  (ffn): Sequential(
    (0): Dropout(p=0.1, inplace=False)
    (1): Linear(in_features=200, out_features=100, bias=True)
    (2): ReLU()
    (3): Dropout(p=0.1, inplace=False)
    (4): Linear(in_features=100, out_features=1, bias=True)
  )
)
Number of parameters = 102,702
Epoch 0
Loss = 1.9973e-02, PNorm = 26.0245, GNorm = 0.5498, lr_0 = 1.4737e-04
Loss = 2.4820e-02, PNorm = 26.0250, GNorm = 0.3473, lr_0 = 1.9474e-04
Loss = 1.4829e-02, PNorm = 26.0264, GNorm = 0.7512, lr_0 = 2.4211e-04
Loss = 2.1266e-02, PNorm = 26.0280, GNorm = 0.4389, lr_0 = 2.8947e-04
Loss = 1.7239e-02, PNorm = 26.0323, GNorm = 0.2609, lr_0 = 3.3684e-04
…
 'show_individual_scores': False,
 'solvation': True,
 'split_sizes': [0.8, 0.1, 0.1],
 'split_type': 'random',
 'test': False,
 'test_fold_index': None,
 'undirected': False,
 'use_compound_names': False,
 'use_input_features': None,
 'val_fold_index': None,
 'warmup_epochs': 2.0}
Loading data
Number of tasks = 1
Splitting data with seed 0
Total size = 12 | train size = 9 | val size = 1 | test size = 2
Fitting scaler
Building model 0
MoleculeModel(
  (encoder): MPN_solvation_attention(
    (encoder): MPNEncoder_attention(
      (dropout_layer): Dropout(p=0.0, inplace=False)
      (act_func): ReLU()
      (W_i): Linear(in_features=117, out_features=10, bias=False)
      (W_h): Linear(in_features=10, out_features=10, bias=False)
      (W_o): Linear(in_features=113, out_features=10, bias=True)
    )
    (attention): Attention(
      (act_func): Sigmoid()
      (att_1): Linear(in_features=20, out_features=30, bias=True)
      (att_2): Linear(in_features=30, out_features=1, bias=True)
    )
  )
  (ffn): Sequential(
    (0): Dropout(p=0.0, inplace=False)
    (1): Linear(in_features=20, out_features=10, bias=True)
    (2): ReLU()
    (3): Dropout(p=0.0, inplace=False)
    (4): Linear(in_features=10, out_features=1, bias=True)
  )
)
Number of parameters = 3,292
Epoch 0
Validation rmse = 4.605894
Epoch 1
Loss = 4.8260e-01, PNorm = 9.3576, GNorm = 2.0227, lr_0 = 6.0000e-04
Validation rmse = 4.615083
Epoch 2
Loss = 2.4413e-01, PNorm = 9.3598, GNorm = 0.0341, lr_0 = 9.8189e-04
Validation rmse = 4.617380
Epoch 3
Loss = 7.9020e-01, PNorm = 9.3631, GNorm = 2.5172, lr_0 = 8.9615e-04
Validation rmse = 4.621809
…
 'show_individual_scores': False,
 'solvation': True,
 'split_sizes': [0.8, 0.1, 0.1],
 'split_type': 'random',
 'test': False,
 'test_fold_index': None,
 'undirected': False,
 'use_compound_names': False,
 'use_input_features': None,
 'val_fold_index': None,
 'warmup_epochs': 2.0}
Loading data
Number of tasks = 1
Splitting data with seed 0
Total size = 5,940 | train size = 4,752 | val size = 594 | test size = 594
Fitting scaler
Building model 0
MoleculeModel(
  (encoder): MPN_solvation_attention(
    (encoder): MPNEncoder_attention(
      (dropout_layer): Dropout(p=0.0, inplace=False)
      (act_func): ReLU()
      (W_i): Linear(in_features=117, out_features=200, bias=False)
      (W_h): Linear(in_features=200, out_features=200, bias=False)
      (W_o): Linear(in_features=303, out_features=200, bias=True)
    )
    (attention): Attention(
      (sigm): Sigmoid()
      (act_func): ReLU()
      (att_1): Linear(in_features=400, out_features=400, bias=True)
      (att_2): Linear(in_features=400, out_features=1, bias=True)
    )
  )
  (ffn): Sequential(
    (0): Dropout(p=0.0, inplace=False)
    (1): Linear(in_features=800, out_features=200, bias=True)
    (2): ReLU()
    (3): Dropout(p=0.0, inplace=False)
    (4): Linear(in_features=200, out_features=1, bias=True)
  )
)
Number of parameters = 445,402
Epoch 0
Loss = 1.6920e-02, PNorm = 36.1975, GNorm = 5.9726, lr_0 = 1.4737e-04
Loss = 1.5916e-02, PNorm = 36.2044, GNorm = 1.8171, lr_0 = 1.9474e-04
Loss = 8.7019e-03, PNorm = 36.2111, GNorm = 5.3693, lr_0 = 2.4211e-04
Loss = 1.1694e-02, PNorm = 36.2207, GNorm = 3.5391, lr_0 = 2.8947e-04
Loss = 8.6433e-03, PNorm = 36.2318, GNorm = 3.0563, lr_0 = 3.3684e-04
…
